model/HR_comma.pth (torch, 2911 bytes, 5 tensors)

fc1.weight f4 [10, 9]
0	0x3e90decb	0.28294978
1	0xbdb7dca1	-0.089776285
2	0xbe201186	-0.15631685
3	0x3eab708b	0.334843
4	0x3b6e1301	0.0036327245
5	0xba963d32	-0.001146233
6	0x3e4ce57f	0.20009421
7	0xbe271310	-0.16315866
8	0x3d8ee218	0.06976718
9	0x3e9855e8	0.2975304
10	0x3d1a5a00	0.037683487
11	0xbe561673	-0.20907001
12	0xbe867fb8	-0.26269317
13	0xbe3a1d7e	-0.18175313
14	0x3e5a1703	0.21297841
15	0xbdcd5be0	-0.100272894
16	0x3bf7d156	0.0075627966
17	0xbdf1d120	-0.118074656
18	0xbe997372	-0.2997089
19	0xbc8d8b16	-0.017278235
20	0x3d6f848b	0.058476012
21	0xbe9fb8ca	-0.3119567
22	0x3e9d7d37	0.30759594
23	0x3e8fb84e	0.280703
24	0xbe9eab8e	-0.3099026
25	0xbe0233c8	-0.12715065
26	0x3e8be397	0.27322075
27	0xbe974367	-0.2954361
28	0xbebf5e7f	-0.37376782
29	0x3d6e95a6	0.058248185
30	0x3dd5996a	0.10429652
31	0x3dda04b6	0.1064543
32	0xbe19feaa	-0.15038553
33	0x3cd126a1	0.025531115
34	0x3e8973f5	0.2684628
35	0xbe8df0c2	-0.27722746
36	0x3df65aaa	0.120290115
37	0xbe6d1df5	-0.23155959
38	0xbebb478a	-0.36578017
39	0x3e76eeff	0.24114607
40	0xbe6a95ed	-0.22908755
41	0x3e505f8e	0.20348951
42	0x3e53cb21	0.20682956
43	0x3e7b8cc3	0.24565415
44	0xbe36accd	-0.17839356
45	0xbdd85440	-0.105629444
46	0x3acd2956	0.0015652578
47	0xbe5437ee	-0.2072446
48	0xbe9aa608	-0.30204797
49	0x3e9a37af	0.30120608
50	0x3e0833b0	0.13300967
51	0xbd735a20	-0.05941212
52	0xbd2dfe40	-0.0424788
53	0xbd3fdf16	-0.04684361
54	0x3e942cbc	0.2894038
55	0xbde396d6	-0.11112754
56	0x3e675fbe	0.22595116
57	0xbe93d7b2	-0.288755
58	0xbe907324	-0.28212845
59	0xbd157876	-0.036491834
60	0x3e894602	0.26811224
61	0xbe95fae6	-0.29292983
62	0xbe9fee47	-0.3123648
63	0x3e8bacd3	0.27280292
64	0xbce44140	-0.027863145
65	0xbe6652e8	-0.22492564
66	0xbdc7ea00	-0.09761429
67	0xbea28b60	-0.3174696
68	0x3df3cf50	0.11904776
69	0xbe72f10e	-0.23724768
70	0x3df1f566	0.11814384
71	0xbe96569b	-0.2936295
72	0x3c156c56	0.009120068
73	0x3d702f8b	0.05863909
74	0xbe48037e	-0.19532582
75	0xbe9496b7	-0.29021236
76	0xbe8dad24	-0.27671158
77	0xbe670bae	-0.22563049
78	0x3e87c5de	0.26518148
79	0xbe672c2e	-0.22575447
80	0xbea15b78	-0.31515098
81	0x3d953d86	0.07287125
82	0x3ea6a0e6	0.3254463
83	0xbde42e56	-0.111416504
84	0xbd952dab	-0.07284101
85	0x3e7a2cfe	0.24431226
86	0xbcdb7196	-0.02678756
87	0x3e92cd16	0.28672093
88	0x3e976a9a	0.29573518
89	0x3d15f46b	0.03661005

fc1.bias f4 [10]
0	0xbcb2c117	-0.021820588
1	0xbd9d3686	-0.07676415
2	0x3d93f926	0.07225256
3	0x3e2ce568	0.16884387
4	0x3e58ca0e	0.21170828
5	0xbdb3600b	-0.08758553
6	0xbdf80476	-0.12110226
7	0xbcc68440	-0.024232984
8	0x3e9edbce	0.31027073
9	0x3cf8216b	0.030289372

fc2.weight f4 [10, 10]
0	0xbe64a0cf	-0.22326969
1	0x3c75b163	0.014995906
2	0x3e246657	0.16054665
3	0xbe75e933	-0.2401474
4	0xbe196877	-0.14981256
5	0xbe79e337	-0.24403082
6	0xbe9de2db	-0.3083714
7	0x3e90bfd0	0.2827134
8	0xbe1278c7	-0.14303885
9	0xbdec73d3	-0.11545529
10	0xbe9bdbf8	-0.3044126
11	0xbe718105	-0.23584373
12	0x3e91d02f	0.28479144
13	0xbc831a34	-0.016003706
14	0x3d90183f	0.070358746
15	0xbe84dadf	-0.25948235
16	0xbe683cfc	-0.22679514
17	0xbc2ec9ea	-0.010668257
18	0xbdaabc36	-0.0833668
19	0xbdd845b6	-0.10560171
20	0xbe6030f5	-0.21893676
21	0x3e4492b0	0.19196582
22	0xbe68bafb	-0.22727577
23	0xbe69ed2b	-0.22844379
24	0x3e7b2627	0.24526273
25	0xbe8e9e14	-0.2785498
26	0x3de58129	0.11206276
27	0xbe84b74f	-0.25921103
28	0x3db24bb9	0.08705849
29	0xbe73cb3a	-0.23807994
30	0x3dc77241	0.09738589
31	0xbe8779c3	-0.26460084
32	0x3e23dab2	0.16001394
33	0x3e6a4593	0.22878103
34	0xbe9aeb29	-0.30257538
35	0xbde7caea	-0.11318
36	0xbd876133	-0.06610336
37	0xbe9c0638	-0.30473495
38	0x3d98b3ff	0.074562065
39	0xbd42a5bf	-0.04752135
40	0xbd51709d	-0.051132787
41	0x3e00ed83	0.12590604
42	0xbe65e6e6	-0.22451362
43	0xbe85401f	-0.26025483
44	0x3d50a659	0.05093989
45	0x3e425e29	0.18981232
46	0xbdae59ca	-0.0851322
47	0x3dc3531a	0.09537335
48	0x3df48cbd	0.11940906
49	0xbda1824e	-0.07886182
50	0xbe29e514	-0.16591293
51	0x3d61e946	0.055154108
52	0x3e85f661	0.26164535
53	0xbd5e03ef	-0.05420297
54	0xbe987219	-0.2977455
55	0xbde8b68b	-0.11362942
56	0xbe886919	-0.26642683
57	0x3e23877d	0.15969653
58	0x3e3aeb40	0.18253803
59	0x3e84db67	0.2594864
60	0x3de75886	0.112961814
61	0x3dfc045b	0.12305518
62	0x3de3d808	0.11125189
63	0xbdd51fa9	-0.10406429
64	0xbe6beb7e	-0.23039052
65	0xbd9ce338	-0.07660526
66	0x3cc27313	0.023736512
67	0x3dcb6aba	0.09932466
68	0xbe32b414	-0.17451507
69	0xbd84bf1a	-0.06481762
70	0x3d5a7d1a	0.053341962
71	0xbe3df318	-0.18549764
72	0xbdbe1e06	-0.0928307
73	0x3d29501d	0.041336168
74	0xbe215ab0	-0.15757251
75	0xbd30bc3f	-0.043148275
76	0xbe7df408	-0.24800122
77	0x3e893aa4	0.26802552
78	0xbe5794c8	-0.2105285
79	0x3ea1c2e9	0.31594017
80	0xbe78928d	-0.24274655
81	0x3d4b8e4e	0.04969626
82	0x3dbc6626	0.09199171
83	0xbe7a46a6	-0.24441013
84	0xbe04b667	-0.12960206
85	0xbe880f4f	-0.2657418
86	0x3e9952a5	0.29945865
87	0xbe7cdfbf	-0.24694727
88	0x3c862906	0.016376983
89	0x3e35dca4	0.17759949
90	0xbe93b948	-0.28852296
91	0x3cd5b668	0.026087955
92	0x3e17db2c	0.14829701
93	0x3e0680fa	0.13135138
94	0xb9d7e405	-0.00041177883
95	0x3e81f88e	0.25384945
96	0xbe69d8a2	-0.22836545
97	0xbd11daca	-0.035609044
98	0xbcfabda7	-0.030608011
99	0x3e9d1415	0.30679384

fc2.bias f4 [10]
0	0xbe7fe9ad	-0.24991484
1	0xbea02e86	-0.31285495
2	0xbe8abcc1	-0.27097133
3	0xb90ec6df	-0.0001361626
4	0xbd891b7c	-0.06694695
5	0x3e414606	0.18874368
6	0xbddf4dec	-0.10903534
7	0xbcd2a180	-0.025711775
8	0xbe8c64f2	-0.27420765
9	0x3e13a6a9	0.14419045

fc3.weight f4 [1, 10]
0	0x3e0dc15f	0.13843296
1	0xbe1057ae	-0.14095947
2	0x3d71de30	0.059049785
3	0xbdd22247	-0.10260444
4	0xbe5f003c	-0.21777433
5	0x3e4a6e40	0.1976862
6	0x3d57344b	0.052540105
7	0xbe8a6c1f	-0.27035615
8	0x3e92300e	0.28552288
9	0x3db45708	0.088056624
