model/HR_comma.pth (torch, 2911 bytes, 5 tensors)

fc1.weight f4 [10, 9]
0	0x4079c552	3.9026685
1	0xbf1390c9	-0.576428
2	0x3e2cc8ad	0.16873427
3	0x3c8befc9	0.017082112
4	0xbf263075	-0.6491769
5	0x3ef6a8f1	0.48175767
6	0x3f8c353d	1.0953747
7	0xbe19cb87	-0.15019046
8	0x3d49ba61	0.04925001
9	0x3f47986a	0.7796694
10	0x3de9fa57	0.11424702
11	0x3e0d558d	0.13802166
12	0xbd7761f9	-0.06039617
13	0xbf6e1948	-0.93007326
14	0xbe1187d6	-0.14211974
15	0xbec3a7b4	-0.38213885
16	0xbd9611f6	-0.073276445
17	0xbe57d14e	-0.21075937
18	0x3e834d2c	0.25644815
19	0xbe06ecb4	-0.13176233
20	0xbe067d0f	-0.13133644
21	0xbd5f1313	-0.05446155
22	0xbe214163	-0.157476
23	0xbe3d2128	-0.1846968
24	0xbe5a7cec	-0.21336716
25	0xbea69418	-0.32534862
26	0x3e374af1	0.17899682
27	0xbd7afe00	-0.06127739
28	0xbd3e938b	-0.046527427
29	0xbe27629b	-0.16346209
30	0xbe08dec0	-0.13366222
31	0x3e487a66	0.19577941
32	0x3e613dd8	0.21996248
33	0x3b614eab	0.0034379165
34	0x3e3c1dbb	0.18370716
35	0xbc93f316	-0.018060248
36	0xbe6df0bb	-0.23236363
37	0xbd8b0bd0	-0.067893624
38	0xbd6b9816	-0.057518087
39	0xbe754a68	-0.23954165
40	0x3d8a5f5b	0.06756469
41	0x3e95f5a0	0.2928896
42	0xbe7662e6	-0.24061164
43	0x3e050c1b	0.12992899
44	0xbeaa8fca	-0.33312827
45	0xbf7a2428	-0.9771142
46	0x3f215ab2	0.63029015
47	0x3ebb2f28	0.36559415
48	0xbe315ef3	-0.17321377
49	0xbd6e1098	-0.058121294
50	0xc0078324	-2.1173792
51	0xbf1f1ee9	-0.6215654
52	0xbf29b315	-0.6628888
53	0xbf980715	-1.1877161
54	0xc0460719	-3.0941832
55	0xbe3ea0df	-0.18616055
56	0xbf603247	-0.8757672
57	0xbd9b907a	-0.07595916
58	0x3da6cf66	0.08145027
59	0xbfc7ef02	-1.5619814
60	0xc024daab	-2.5758464
61	0xbe44b385	-0.19209106
62	0xbf4450d0	-0.7668581
63	0x3e10b228	0.14130461
64	0xbe64e5c6	-0.22353277
65	0x3e9afbca	0.30270225
66	0xbe0b1028	-0.13580382
67	0xbe0b61ae	-0.1361148
68	0x3d1a2bab	0.0376393
69	0x3e9514f6	0.29117554
70	0x3e518078	0.20459163
71	0x3e3a90a0	0.18219233
72	0x3e0355eb	0.12825744
73	0x3dcc314b	0.099703394
74	0x3e108893	0.14114599
75	0xbe01163e	-0.12606141
76	0x3ddbc72b	0.10731348
77	0x3e076383	0.13221554
78	0xbe7584e3	-0.23976474
79	0xbd668d16	-0.056286894
80	0xbe7afdce	-0.24510881
81	0x3fccfd8d	1.6014878
82	0xbe89a6f9	-0.26885203
83	0x3f099d74	0.5375588
84	0x3eba8a27	0.36433527
85	0x3ed0955c	0.40738952
86	0x3f81d045	1.0141684
87	0x3fede7b4	1.8586335
88	0x3d9762c1	0.07391883
89	0x3e950d79	0.2911184

fc1.bias f4 [10]
0	0xbe8474eb	-0.2587045
1	0x3dee29ad	0.11629043
2	0xbd34989d	-0.044090856
3	0x3e6bdccb	0.23033445
4	0xbdfc0396	-0.123053715
5	0xbf346549	-0.7046705
6	0x3f4101f4	0.75393605
7	0x3df1b33b	0.118017636
8	0xbe361b08	-0.17783749
9	0xbea116be	-0.31462663

fc2.weight f4 [10, 10]
0	0x3e0eeadc	0.13956779
1	0x3e27b71e	0.16378447
2	0x3db4916f	0.08816802
3	0x3ded1cb1	0.11577738
4	0xbea19774	-0.31560862
5	0x3d9bbf2c	0.076048225
6	0xbd7d54c7	-0.061848428
7	0xbe9f91b9	-0.31165865
8	0xbd7bddbc	-0.06149076
9	0xbed47901	-0.4149857
10	0x3e16323c	0.146676
11	0xbc9a6f6d	-0.01885196
12	0x3e3c861c	0.18410534
13	0x3e1aff87	0.15136538
14	0xbd6421f9	-0.05569646
15	0xbe0b546b	-0.13606422
16	0xbdc3055e	-0.09522508
17	0xbe49699c	-0.19669193
18	0x3dcd6a1c	0.100300044
19	0xbe5e0def	-0.21685003
20	0xbf11fed7	-0.5702948
21	0xbf11c508	-0.5694127
22	0xbe030b38	-0.12797248
23	0x3debab93	0.115073346
24	0x3e679808	0.22616589
25	0xbf210e62	-0.6291257
26	0xbe61dab5	-0.22056086
27	0x3e829620	0.2550516
28	0x3dc7e56b	0.09760555
29	0xbdb70c2d	-0.08937869
30	0xbe5f6000	-0.21813965
31	0xbe02ca25	-0.12772425
32	0xbd1a0fe5	-0.037612814
33	0x3e0d50cd	0.13800354
34	0x3e9ad849	0.30243137
35	0x3e0a2d32	0.13493803
36	0x3d4607e3	0.048347365
37	0x3d9741b2	0.07385577
38	0x3e52e939	0.2059678
39	0xbf278fcb	-0.65453786
40	0xbe39c737	-0.181424
41	0xbe622f84	-0.22088438
42	0x3e9ea744	0.3098699
43	0xbe128ef1	-0.1431234
44	0x3e05a97c	0.13052934
45	0xbda06c85	-0.078331985
46	0xbe1ee9a8	-0.1551882
47	0xbe2ee808	-0.170807
48	0x3c664c8e	0.014056338
49	0xbd6f10d3	-0.058365654
50	0xbe94b941	-0.29047588
51	0xbe31d6e5	-0.17367132
52	0x3e2aac91	0.16667391
53	0x3d8981dd	0.067142226
54	0x3e6a0569	0.22853626
55	0x3c508d0d	0.012728942
56	0xbe9ab7ac	-0.30218256
57	0x3e985b86	0.29757327
58	0xbe85c8ee	-0.2612986
59	0xbe019c9d	-0.126574
60	0xbeaba9fb	-0.33528122
61	0xbea2d0bc	-0.31799877
62	0xbe38cce9	-0.18046917
63	0xbcdbc30e	-0.026826408
64	0xbdba3ef7	-0.09094041
65	0x3d038609	0.032110248
66	0xbf03a7d5	-0.51427966
67	0xbcf5a272	-0.029984687
68	0xbd051ee1	-0.03250015
69	0xbd88d186	-0.066805884
70	0xbe71a4d7	-0.23598038
71	0xbd22d368	-0.039752394
72	0xbe9a846c	-0.30179155
73	0x3d94c549	0.07264192
74	0x3dcc77b3	0.09983768
75	0xbe82441b	-0.25442585
76	0xbe835686	-0.2565195
77	0xbe73296a	-0.23746267
78	0x3cbe91a5	0.023262808
79	0xbe47a5a4	-0.1949678
80	0xbe2ceafe	-0.16886517
81	0x3e5cca14	0.21561462
82	0x3e2f4a4f	0.1711819
83	0x3d8745ba	0.06605096
84	0x3e91645c	0.2839688
85	0xbc513de1	-0.012771101
86	0xbd4a76b2	-0.049429603
87	0x3e07eb55	0.13273366
88	0xbde1b347	-0.110205226
89	0xbed19322	-0.40932566
90	0xbe39fb0e	-0.18162176
91	0xbc8ea194	-0.01741103
92	0x3de6d7d9	0.112716384
93	0x3e12f53b	0.1435136
94	0x3df66038	0.12030071
95	0x3e81e87d	0.25372687
96	0xbe2617d2	-0.16220024
97	0x3d802a27	0.0625804
98	0xbe91317c	-0.28358066
99	0xbeb7be9d	-0.35887614

fc2.bias f4 [10]
0	0xbe2a6bf0	-0.16642737
1	0x3e77d668	0.24202883
2	0xbf02e187	-0.5112538
3	0x3f003045	0.50073653
4	0x3e3bb4ec	0.18330735
5	0xbda68b54	-0.081320435
6	0xbd183f07	-0.037169483
7	0xbe454c4e	-0.19267389
8	0x3e58c8ac	0.211703
9	0x3dcaefe0	0.09909034

fc3.weight f4 [1, 10]
0	0xbd96b757	-0.07359188
1	0x3df3372c	0.118757576
2	0x3df696a4	0.12040451
3	0x3e151294	0.14557868
4	0xbde51b8e	-0.11186896
5	0x3e6742b8	0.22584045
6	0x3e047383	0.12934689
7	0xbd79b761	-0.0609659
8	0x3cd46abf	0.025929807
9	0xbe30742e	-0.17231819
